…
 'TEST_DATASET': '$SLURM_TMPDIR/datasets/testing_dataset.npy',
 'TRAIN_DATASET': '$SLURM_TMPDIR/datasets/training_dataset.npy',
 'VALID_DATASET': '$SLURM_TMPDIR/datasets/validation_dataset.npy',
 'WEIGHT_DECAY': 0.0}
2024-06-22 19:24:24,689 - INFO - Train -> 294912, 2304 (samples, batches)
2024-06-22 19:24:24,691 - INFO - Valid -> 36864, 288 (samples, batches)
2024-06-22 19:24:24,691 - INFO - Test  -> 36864,  288  (samples, batches)
2024-06-22 19:24:24,973 - INFO - ViTMAEForPreTraining(
  (vit): ViTMAEModel(
    (embeddings): ViTMAEEmbeddings(
      (patch_embeddings): ViTMAEPatchEmbeddings(
        (projection): Conv2d(16, 128, kernel_size=(4, 4), stride=(4, 4))
      )
    )
    (encoder): ViTMAEEncoder(
      (layer): ModuleList(
        (0-5): 6 x ViTMAELayer(
          (attention): ViTMAEAttention(
            (attention): ViTMAESelfAttention(
              (query): Linear(in_features=128, out_features=128, bias=True)
              (key): Linear(in_features=128, out_features=128, bias=True)
              (value): Linear(in_features=128, out_features=128, bias=True)
              (dropout): Dropout(p=0.0, inplace=False)
            )
            (output): ViTMAESelfOutput(
              (dense): Linear(in_features=128, out_features=128, bias=True)
              (dropout): Dropout(p=0.0, inplace=False)
            )
          )
          (intermediate): ViTMAEIntermediate(
            (dense): Linear(in_features=128, out_features=256, bias=True)
            (intermediate_act_fn): GELUActivation()
          )
          (output): ViTMAEOutput(
            (dense): Linear(in_features=256, out_features=128, bias=True)
            (dropout): Dropout(p=0.0, inplace=False)
          )
          (layernorm_before): LayerNorm((128,), eps=1e-12, elementwise_affine=True)
          (layernorm_after): LayerNorm((128,), eps=1e-12, elementwise_affine=True)
        )
      )
    )
    (layernorm): LayerNorm((128,), eps=1e-12, elementwise_affine=True)
  )
  (decoder): ViTMAEDecoder(
    (decoder_embed): Linear(in_features=128, out_features=64, bias=True)
    (decoder_layers): ModuleList(
      (0-1): 2 x ViTMAELayer(
        (attention): ViTMAEAttention(
          (attention): ViTMAESelfAttention(
            (query): Linear(in_features=64, out_features=64, bias=True)
            (key): Linear(in_features=64, out_features=64, bias=True)
            (value): Linear(in_features=64, out_features=64, bias=True)
            (dropout): Dropout(p=0.0, inplace=False)
          )
          (output): ViTMAESelfOutput(
            (dense): Linear(in_features=64, out_features=64, bias=True)
            (dropout): Dropout(p=0.0, inplace=False)
          )
        )
        (intermediate): ViTMAEIntermediate(
          (dense): Linear(in_features=64, out_features=128, bias=True)
          (intermediate_act_fn): GELUActivation()
        )
        (output): ViTMAEOutput(
          (dense): Linear(in_features=128, out_features=64, bias=True)
          (dropout): Dropout(p=0.0, inplace=False)
        )
        (layernorm_before): LayerNorm((64,), eps=1e-12, elementwise_affine=True)
        (layernorm_after): LayerNorm((64,), eps=1e-12, elementwise_affine=True)
      )
    )
    (decoder_norm): LayerNorm((64,), eps=1e-12, elementwise_affine=True)
    (decoder_pred): Linear(in_features=64, out_features=256, bias=True)
  )
)
2024-06-22 19:24:24,975 - INFO - ViTMAEConfig {
  "attention_probs_dropout_prob": 0.0,
  "decoder_hidden_size": 64,
  "decoder_intermediate_size": 128,
  "decoder_num_attention_heads": 4,
  "decoder_num_hidden_layers": 2,
  "hidden_act": "gelu",
  "hidden_dropout_prob": 0.0,
  "hidden_size": 128,
  "image_size": 64,
  "initializer_range": 0.02,
  "intermediate_size": 256,
…
